medium.onnx (onnx, 2076 bytes, 6 tensors)

25 f4 [3, 3, 3, 3]
0	0xbd966665	-0.07343749
1	0xbf073a2f	-0.52823156
2	0xc0194172	-2.3946195
3	0x40805ade	4.011092
4	0x40d64928	6.69643
5	0xbf0f01c7	-0.55862087
6	0x4138aa0e	11.541517
7	0xc15825fb	-13.509273
8	0x41bb6814	23.42582
9	0x400595a5	2.0872586
10	0xc03ddb83	-2.966523
11	0xc02bf0f8	-2.6865826
12	0x41d06d5a	26.053394
13	0xc0e73a0e	-7.2258368
14	0x40c91f5f	6.2850795
15	0x3dd0a74c	0.10188159
16	0xc1b453a1	-22.540834
17	0xc03d5983	-2.9585884
18	0x4017ea3f	2.3736722
19	0x3e9fb02b	0.31189093
20	0x3fc6db9e	1.5535772
21	0x419e8cec	19.81881
22	0xc21f6480	-39.848145
23	0xc2043ce8	-33.05948
24	0xbe1586f8	-0.14602268
25	0x410de745	8.868962
26	0xc0f04303	-7.50818
27	0x4029cde1	2.6531909
28	0x4044e75c	3.076621
29	0x40a4ab81	5.1459355
30	0xc0293645	-2.6439373
31	0xc1a91d56	-21.139324
32	0x40518fdb	3.2744052
33	0x41d1bfde	26.218685
34	0x420c81dd	35.12682
35	0xc1181ffd	-9.50781
36	0x40c5f6a5	6.186358
37	0x410ab57e	8.66931
38	0x40bdc387	5.930118
39	0x41c45c6f	24.545134
40	0x418df5f5	17.745096
41	0xc1166535	-9.399709
42	0x412bf915	10.748311
43	0x40df4290	6.9768753
44	0x3fe13db0	1.759695
45	0xc08f7256	-4.482707
46	0xc16b2f4a	-14.699045
47	0xc0e12042	-7.0351877
48	0x41f73655	30.90153
49	0xc195fa81	-18.747316
50	0x4145bd6a	12.358744
51	0x40a08a98	5.016918
52	0x3fcfd168	1.6235781
53	0x40a93304	5.2874775
54	0xbfda47f9	-1.7053214
55	0xc02cbbdc	-2.698966
56	0xc0c1307f	-6.03717
57	0x3ffd1e80	1.9774933
58	0x4181cfe6	16.226513
59	0xc1018337	-8.094535
60	0x41036712	8.212664
61	0x4224fcf4	41.247025
62	0xc101957f	-8.098998
63	0xc03324f6	-2.799131
64	0xc12a772e	-10.654097
65	0xc0d0b879	-6.5225186
66	0x3e4a9367	0.19782792
67	0xc246a3cf	-49.65997
68	0x41054911	8.3303385
69	0x40938911	4.6104817
70	0x41d7be76	26.967999
71	0x3f6d29ef	0.9264211
72	0x40a1e9fe	5.0598135
73	0x414a4355	12.6414385
74	0x41324f1e	11.144316
75	0x4164f3ef	14.309554
76	0xc0928b40	-4.5794983
77	0x40c2f759	6.092694
78	0x40c78276	6.2346754
79	0x3f0445b3	0.5166885
80	0x40965ab4	4.698572

26 f4 [3]
0	0x40229b38	2.5407238
1	0xc0b2ac56	-5.583537
2	0xbf319050	-0.6936083

enhance.in_conv.0.bias f4 [3]
0	0x3d6f7390	0.05845982
1	0x3d81746f	0.06321036
2	0x3d23e80f	0.04001623

enhance.in_conv.0.weight f4 [3, 3, 3, 3]
0	0x3da3c954	0.07997385
1	0xbc8e1e05	-0.017348299
2	0xbbe5f61e	-0.007017865
3	0xbbe930e8	-0.007116426
4	0x3c400c11	0.011721627
5	0x3d3e4cd6	0.046459995
6	0xbc58fa8e	-0.013243331
7	0xbd3d0c53	-0.04615433
8	0x394e1191	0.00019652235
9	0x3d82a86c	0.0637978
10	0xbcd0e43b	-0.025499454
11	0x3c2a0a2e	0.010378404
12	0x3c10c51f	0.00883606
13	0x3d306268	0.043062598
14	0xbd833bf8	-0.064079225
15	0x3bfa5d68	0.0076405294
16	0x3d07aef7	0.033125844
17	0x3aff04fb	0.001945644
18	0xbdcc3801	-0.099716194
19	0x3d40b7c0	0.047050238
20	0x3d0ab172	0.03386063
21	0x3dc39e06	0.09551625
22	0x3dde1fca	0.10845907
23	0x3d672b1c	0.056437597
24	0xbc627db1	-0.0138239125
25	0xbd2f0b44	-0.042735353
26	0xbb0b0754	-0.0021214085
27	0xbcd560d1	-0.026047142
28	0x3d156135	0.036469657
29	0x3c46ece9	0.012141445
30	0xbc55aa2b	-0.0130410595
31	0xbc993a7b	-0.018704643
32	0xbdc420aa	-0.09576543
33	0xbb6d3cc5	-0.0036199552
34	0xbc50b800	-0.0127391815
35	0xbcda0d51	-0.026617678
36	0xbc66b62f	-0.014081522
37	0x3d1845c2	0.0371759
38	0xbb00f0af	-0.0019674709
39	0xbca8da27	-0.020611836
40	0x3e0ba9d6	0.13639006
41	0x3d0b6db0	0.034040153
42	0xbc141452	-0.009038048
43	0x3c395c09	0.011313447
44	0x3d040914	0.03223522
45	0x3d0cc3cf	0.034366425
46	0xbd5945d0	-0.053045094
47	0xbcde681a	-0.027149249
48	0x3b74904d	0.0037317455
49	0x3dad97de	0.08476232
50	0xbd8953b7	-0.067054205
51	0xbb5bffd8	-0.0033569243
52	0xbc1fb27d	-0.009747145
53	0xbccd5261	-0.025063695
54	0x3c06ed07	0.008235223
55	0x3c9c1fd1	0.01905814
56	0x3bc46255	0.0059931674
57	0xbd93e9cf	-0.0722233
58	0xbd4739f9	-0.04863927
59	0xbcdd2be4	-0.026998468
60	0xbce32448	-0.027727261
61	0xbdab37ea	-0.08360274
62	0x3d7bca9e	0.061472528
63	0x3c28bbb3	0.010298657
64	0x3c84b870	0.016201228
65	0x3b42e493	0.0029738292
66	0xbd0fc474	-0.03509946
67	0xbd14b3e9	-0.03630439
68	0x3c4d5971	0.0125335315
69	0xbc59d806	-0.013296133
70	0x3df6baf4	0.12047377
71	0xbd68c228	-0.056825787
72	0xbc077dcf	-0.008269741
73	0xbcde812e	-0.027161207
74	0xbafeda79	-0.0019443772
75	0x3dd30edf	0.10305571
76	0x3ca100b7	0.019653661
77	0x3c867aca	0.016415972
78	0xbc9139f3	-0.017727828
79	0xbcc6f2d6	-0.024285715
80	0x3d71d3c4	0.059039846

enhance.out_conv.0.bias f4 [3]
0	0xbe21d51d	-0.15803953
1	0xbe89b5c9	-0.26896504
2	0xbe7eb15e	-0.24872348

enhance.out_conv.0.weight f4 [3, 3, 3, 3]
0	0xbdd4a52b	-0.10383066
1	0xbe2fae5a	-0.17156354
2	0x3c8e7c22	0.017393176
3	0xbdea49c7	-0.11439853
4	0xbe3e37b5	-0.18575938
5	0xbd0433ba	-0.032275893
6	0x3c67f63d	0.014157829
7	0x3c3473fe	0.011013983
8	0xbd1c9a56	-0.038233124
9	0x3de30b69	0.11086161
10	0xbe18a7d7	-0.14907776
11	0x3cc611ce	0.024178412
12	0x3e0d4351	0.1379521
13	0x3e10d4bb	0.1414365
14	0xbdc4a1fe	-0.0960121
15	0xbcb36f0b	-0.021903535
16	0xbdd64b42	-0.10463573
17	0xbcd9b7cd	-0.0265769
18	0x3d442691	0.047888342
19	0x3bcccd65	0.006250071
20	0x3ca943e4	0.020662256
21	0xbe6eef40	-0.23333454
22	0x3d850753	0.064955376
23	0xbd5cc2bb	-0.053896647
24	0x3d3ad475	0.04561277
25	0x3e11b1f2	0.14228037
26	0xbce16ea4	-0.027518578
27	0xbccfff0d	-0.025390172
28	0x3e6afa2c	0.22946995
29	0xbd98668f	-0.074414365
30	0xbdd1cce5	-0.10244159
31	0xbe4f0496	-0.20216593
32	0xbdfd35f2	-0.12363805
33	0xbc2dcef5	-0.010608424
34	0xbbc5cd02	-0.0060364017
35	0xbc12e195	-0.008964916
36	0x3c9c1671	0.01905367
37	0x3cb513dd	0.022104198
38	0xbdf9a517	-0.121896915
39	0x3cd991c2	0.02655876
40	0xbd427f61	-0.04748476
41	0xbe024613	-0.12722044
42	0xbc6fe3a1	-0.014641673
43	0xbd82b309	-0.063818045
44	0xbd07ad02	-0.033123977
45	0x3d94366e	0.07236944
46	0xbe14dede	-0.14538142
47	0xbd85c06f	-0.065308444
48	0x3c4f8645	0.01266629
49	0x3deb4637	0.11488002
50	0xbad12d23	-0.0015958886
51	0x3d063365	0.032763857
52	0x3da1ea2a	0.079059914
53	0x3bb95af1	0.005656593
54	0xbd570099	-0.052490804
55	0x3d3f34a6	0.04668107
56	0xbcf18c2d	-0.029485786
57	0xbe047d5c	-0.12938446
58	0x3de64810	0.112442136
59	0xbdab78dd	-0.08372662
60	0xbcf48665	-0.02984924
61	0xbca17775	-0.019710282
62	0x3cdcf738	0.026973352
63	0x3d93ec5a	0.07222815
64	0xbe20f576	-0.15718636
65	0xbdea40ab	-0.11438116
66	0x3e02ddcf	0.12779926
67	0xbda5043a	-0.08057447
68	0x3c8c9d8c	0.017164968
69	0x3ccc9bda	0.02497666
70	0x3daa26de	0.083081946
71	0xbc4b42a8	-0.012406029
72	0x3d0ddc7f	0.03463411
73	0xbe2b1699	-0.16707839
74	0xbd89a260	-0.06720424
75	0xbdd68a8d	-0.10475645
76	0xbc422313	-0.011849183
77	0x3ce8a127	0.028397156
78	0xbd232aec	-0.039835855
79	0xbdd07d32	-0.10180129
80	0x3d18b1f8	0.0372791
